saved_models/FetchSlide-v1/model.pt (torch_old, 562016 bytes, 8 tensors)

fc1.weight f4 [256, 28]
0	0x3d4f4c62	0.050609954
1	0xbe62f738	-0.22164619
2	0xbda9c4a3	-0.082894586
3	0x3edc4612	0.4302221
4	0xbeaae0e3	-0.333747
5	0x3a7f2fb2	0.0009734585
6	0x3e84bbca	0.25924522
7	0xbe3488df	-0.17630337
8	0xbc8e7a44	-0.017392285
9	0xbe0e3e9f	-0.13891076
10	0x3e31cf01	0.17364122
11	0xbb4d913b	-0.0031367082
12	0xbe14fbaf	-0.14549135
13	0xbc6598b7	-0.014013461
14	0x3f552996	0.8326658
15	0xbf8f94bd	-1.1217266
16	0x3d635db7	0.055509295
17	0x3c6ec428	0.0145731345
18	0x3c4d73ce	0.012539817
19	0x3c99966a	0.01874848
20	0x3f3732a1	0.7156163
21	0xbf899123	-1.0747417
22	0x3dcc1739	0.09965367
23	0x3c125ea8	0.008933701
24	0xbd447481	-0.04796267
25	0xbeba1e34	-0.36351168
26	0x3f3ca42a	0.73687994
27	0x3f8929d0	1.0715885
28	0x3ec076e1	0.37590697
29	0x3ee1b462	0.44082934
30	0xbf1af733	-0.60533446
31	0xbeeebf77	-0.4663045
32	0xbecc9c22	-0.3996287
33	0xbf94654e	-1.1593416
34	0xbf2ce7fe	-0.6754149
35	0xbf9374e5	-1.1520048
36	0x3e948782	0.29009634
37	0x3d86bd8f	0.06579124
38	0xbd80472f	-0.06263577
39	0x3e23e1db	0.16004126
40	0xbdabdd96	-0.083918735
41	0xbc083f75	-0.008315911
42	0x3e71b692	0.23604801
43	0xbb69c730	-0.0035671704
44	0xbbd01b22	-0.0063508907
45	0x3b63e192	0.0034771902
46	0x3cd193ee	0.025583234
47	0xbc7b1422	-0.015324624
48	0x3e5b383a	0.21408167
49	0x3ccbd6ad	0.024882639
50	0x3b2cc7e6	0.0026364266
51	0x3db98467	0.09058457
52	0xbcd43d5a	-0.025908161
53	0xbe990d98	-0.29893184
54	0xbe055847	-0.13021956
55	0x3f1719c6	0.590237
56	0x3e9041fe	0.28175348
57	0x3e070e12	0.13188961
58	0x3e9eb424	0.3099681
59	0x3fc95769	1.57298
60	0x3d8c0662	0.06837155
61	0x3ecdf393	0.40224895
62	0x3f7bcdb6	0.98360765
63	0xbe2cc0cb	-0.1687042
64	0x3ec32259	0.38112143
65	0xbcdaabd6	-0.026693266
66	0x3ef1a24f	0.47194144
67	0x3dc65714	0.096845776
68	0xbde9584e	-0.11393796
69	0x3e545f7e	0.20739552
70	0x3e5be555	0.21474202
71	0x3e2924c2	0.16517928
72	0xbe0b1db1	-0.13585545
73	0x3ca35f4b	0.0199429
74	0x3c9711e1	0.018441143
75	0x3ccb9ca8	0.024854973
76	0x3e172ee1	0.14763977
77	0x3e19e33e	0.15028092
78	0xbde4fc40	-0.11180925
79	0x3c9676f8	0.018367276
80	0x3d93c579	0.07215399
81	0xbe9a3351	-0.30117276
82	0xbf59533e	-0.8489264
83	0xbf2c749e	-0.67365444
84	0x3e39f483	0.1815968
85	0xbdcffcbe	-0.101556286
86	0xbc9f4584	-0.019442327
87	0x3ed3cd89	0.41367748
88	0x3e0aaec2	0.13543227
89	0xbefaade6	-0.489608
90	0x3f2a1aee	0.6644734
91	0xbe842eba	-0.258169
92	0xbdd4d002	-0.10391237
93	0xbea2ca45	-0.31794944
94	0x3e67e81b	0.22647135
95	0x3f0509be	0.5196799
96	0x3e63fa91	0.22263552
97	0x3cc1c902	0.023655418
98	0x3fc59bbe	1.5438154
99	0xbd38bd83	-0.045102607
100	0xbe14f2ae	-0.145457
101	0x3d42f1d3	0.047593903
102	0x3d934aad	0.07191978
103	0xbbf76772	-0.0075501734
104	0x3f983335	1.1890627
105	0xbcae2618	-0.021258399
106	0xbdbdba05	-0.09263996
107	0x3c9c99e0	0.019116342
108	0xbd8b35c6	-0.06797366
109	0xbca36064	-0.019943424
110	0xbc88ae43	-0.016684657
111	0xbf8d0ef6	-1.1020191
112	0x3cccf9ca	0.025021452
113	0x3de105b0	0.10987413
114	0x3e7d9534	0.24763948
115	0x3eb3917b	0.3507193
116	0xbd4e7eac	-0.050413772
117	0x3e971706	0.29509753
118	0x3e90b8be	0.28265947
119	0x3e13d477	0.14436518
120	0x3e81c4e7	0.25345537
121	0xbf80c4a2	-1.0060008
122	0x3fa5a3fb	1.2940668
123	0xbe7a7d3a	-0.24461833
124	0x3db63b8d	0.08898077
125	0xbd064800	-0.03278351
126	0x3f8060ee	1.002958
127	0x3f648ee4	0.89280534
128	0x3def9b5b	0.116995536
129	0x3d20d6e4	0.039267436
130	0x3c565167	0.013080931
131	0xbd2e6557	-0.042577114
132	0x3f4a1263	0.78934306
133	0x3f48339f	0.7820377
134	0x3d6d8636	0.05798932
135	0xbdfe5c1a	-0.12419911
136	0xbe01d63d	-0.12679382
137	0x3e61509c	0.22003406
138	0x3d6b859f	0.057500478
139	0xbffcab8f	-1.9739856
140	0x3f4364b0	0.7632551
141	0xbeece36f	-0.46267268
142	0xbdbb967b	-0.09159561
143	0x3f99fed8	1.2030897
144	0xbef5831a	-0.47951585
145	0xbf87bfd3	-1.0605415
146	0xbebcef4f	-0.36901328
147	0xbf3370da	-0.7009407
148	0xbda969af	-0.08272111
149	0xbfe2d638	-1.7721624
150	0x3fd353e2	1.6509974
151	0x3d76d510	0.060261786
152	0xbcae7648	-0.021296635
153	0xbdebb2d7	-0.1150872
154	0xbe67882b	-0.22610538
155	0x3cbfca57	0.023411913
156	0xbdceb17d	-0.10092447
157	0xbd0014ed	-0.031269956
158	0xbcbbb074	-0.022911288
159	0xbc8b7c0a	-0.01702692
160	0xbe31a8bf	-0.17349528
161	0x3d59d8e6	0.053185366
162	0xbd87c232	-0.06628837
163	0x3db70f8e	0.08938514
164	0x3e1eb2bd	0.1549787
165	0x3d6d1cf6	0.057888947
166	0x3d6aeba1	0.05735362
167	0xbf44e22b	-0.76907605
168	0x3ea8152e	0.3282866
169	0x3f1a41ce	0.6025666
170	0xbd6d97d9	-0.05800614
171	0x3f617f02	0.88084424
172	0x3f5f0198	0.87111807
173	0xbf1f1c66	-0.6215271
174	0x3f478c3f	0.77948374
175	0x3f201ed9	0.6254707
176	0xbcac1a97	-0.021008773
177	0x3ef0e2b9	0.47047976
178	0xbba3437a	-0.004982409
179	0xbc2be640	-0.010491908
180	0x3c82e27e	0.01597714
181	0x3d3e046f	0.046390947
182	0x3ea0f5ee	0.3143763
183	0x3f084add	0.5323923
184	0xbcff53a9	-0.031167822
185	0x3c227303	0.009915116
186	0xbce24d49	-0.027624743
187	0x3c8c3b9d	0.01711827
188	0x3e8d426e	0.27589744
189	0x3f005782	0.50133526
190	0xbd1a55c5	-0.037679452
191	0xbdb860be	-0.09002827
192	0xbdb8a7e6	-0.09016399
193	0xbfc585b0	-1.5431423
194	0xbffc1771	-1.9694654
195	0xbf4cb5bf	-0.7996482
196	0xbe4d2c37	-0.20036398
197	0xbd300e6c	-0.042982504
198	0xbe08d56e	-0.13362667
199	0x3f1aed1e	0.6051806
200	0xbe4dad56	-0.20085654
201	0xbf0f7607	-0.5603947
202	0x3f20d59f	0.6282596
203	0xbe8c78fc	-0.27436054
204	0xbede09f8	-0.4336698
205	0xbe1f8ecb	-0.15581815
206	0x3d3bb60f	0.04582792
207	0xbf328efb	-0.6974942
208	0x3e2567b0	0.16152835
209	0x3cf9d279	0.030495869
210	0x3e03f405	0.12886055
211	0xbf2d6a39	-0.6774021
212	0xbd3c02e7	-0.045901205
213	0xbcb339c4	-0.02187813
214	0x3c8cd2dd	0.017190391
215	0x3cf490d2	0.029854212
216	0x3db1933f	0.08670663
217	0xbf1b3b79	-0.60637623
218	0xbdfffbb4	-0.124991804
219	0xbe028544	-0.1274615
220	0x3ce2e40a	0.027696628
221	0xbf76a239	-0.9634128
222	0xbe040eb4	-0.12896234
223	0x3fa4175b	1.2819628
224	0x3e7c4153	0.24634294
225	0x3e82a047	0.25512907
226	0x3e080e07	0.13286601
227	0x3e3ce76d	0.18447657
228	0xbbda3710	-0.006659396
229	0x3e23ef3a	0.16009226
230	0xbe2421c3	-0.16028504
231	0xbf3d2926	-0.7389091
232	0xbe54b0b6	-0.20770535
233	0xbfabc37d	-1.3419033
234	0x3fc71108	1.5552073
235	0x3db7293c	0.08943412
236	0x3dafc27f	0.08582019
237	0xbc8c5f9f	-0.01713544
238	0x3da20630	0.079113364
239	0x3f0116f5	0.50425655
240	0x3e0b869d	0.1362557
241	0xbcb27af0	-0.021787137
242	0x3d67f1fd	0.056627262
243	0x3cff611b	0.031174233
244	0x3de4bc72	0.111687556
245	0x3f00bb63	0.5028593
246	0x3e386ff4	0.18011457
247	0x3cb72f6b	0.022361478
248	0x3cc9db45	0.024640689
249	0xbd9e1546	-0.07718901
250	0xbf0dec29	-0.55438477
251	0x3ef99bd8	0.48751712
252	0x3d2e64c5	0.04257657
253	0x3cc298c6	0.023754489
254	0xbe1b2be1	-0.15153457
255	0xbebd1370	-0.36928892

fc1.bias f4 [256]
0	0xbf6fd6d2	-0.93687165
1	0xbf555e71	-0.8334723
2	0xbe3eacd4	-0.18620616
3	0xbf8ea400	-1.1143799
4	0xc005a2f7	-2.0880716
5	0xbf19b821	-0.60046583
6	0xbe9ebb47	-0.31002256
7	0xbfc7e72a	-1.5617421
8	0xbf4af256	-0.79276025
9	0xbfbf09b5	-1.4924837
10	0xbf86b7ba	-1.0524819
11	0x3df9e1d6	0.12201278
12	0xbfbca035	-1.4736391
13	0xbf75c5bb	-0.9600484
14	0xbf4be89e	-0.7965182
15	0xbf84fc4f	-1.0389498
16	0xbfbd6725	-1.4797102
17	0xbeef5f49	-0.46752384
18	0xbfcba7f0	-1.5910625
19	0xc03284dd	-2.7893593
20	0x3f3242ef	0.6963338
21	0xbfbaeb51	-1.4603063
22	0xbfcef30c	-1.6167922
23	0xbf0a23e1	-0.53960997
24	0xbfb8ee19	-1.4447662
25	0x3ef711c7	0.4825575
26	0x3f33b08c	0.70191264
27	0xbfbac972	-1.4592726
28	0xbf7c504a	-0.9856001
29	0xbfa24c94	-1.267962
30	0x3d64eead	0.05589168
31	0xbd479b95	-0.04873236
32	0xc020cd1b	-2.5125186
33	0xbfe1ee3d	-1.765083
34	0xbf3f9f2b	-0.74852246
35	0x3f1c48e7	0.6104874
36	0xbf831187	-1.0239724
37	0xc03e8647	-2.9769456
38	0xbfcd1367	-1.6021546
39	0xbfc27fe3	-1.5195278
40	0xbf99243e	-1.1964185
41	0x3f07f6ff	0.5311126
42	0xbf75aacf	-0.9596376
43	0xbfd903ef	-1.6954325
44	0xbfa057b8	-1.252677
45	0xbeb476ff	-0.35247037
46	0x3f462703	0.7740328
47	0xbf2c7099	-0.6735931
48	0xbf14d262	-0.5813352
49	0xbf174135	-0.59083873
50	0xbe334b83	-0.17509274
51	0xbfe09127	-1.7544297
52	0xbf43c225	-0.76468116
53	0xbfb4b4b2	-1.4117644
54	0x3ddd761f	0.108135454
55	0xbf3ec83a	-0.7452427
56	0xc023a014	-2.5566454
57	0xbfc06b73	-1.5032791
58	0xbf38a2b7	-0.72123283
59	0xc01b0b74	-2.422574
60	0xc03268d8	-2.7876492
61	0xbfc4fe0d	-1.539003
62	0xbfe78ee2	-1.8090479
63	0x3ec493e4	0.38394082
64	0xbf8db87f	-1.1071929
65	0xbf779b28	-0.96721125
66	0xbfcb6741	-1.5890886
67	0xbe5c58dd	-0.21518274
68	0xbfa28ab3	-1.2698578
69	0xbfe100fc	-1.7578425
70	0x3f046cbc	0.51728415
71	0xbf3221e8	-0.69582987
72	0xbff711e3	-1.9302334
73	0xbf48b73d	-0.784046
74	0xbfae5ba1	-1.3621713
75	0xbf69ddbf	-0.9135398
76	0xbfa3dec5	-1.2802359
77	0xbfd716cb	-1.6803831
78	0xbfbfc315	-1.4981409
79	0xbfb4ed49	-1.4134914
80	0xc03d296d	-2.9556534
81	0xbfe28327	-1.7696275
82	0xbf9b6716	-1.2140834
83	0xc013f74f	-2.3119695
84	0xbfec524a	-1.8462613
85	0xbfcd66f8	-1.6047049
86	0xc03c77fb	-2.944823
87	0xbdc08bca	-0.09401663
88	0xbf0ddfda	-0.55419695
89	0xbfdf587c	-1.7448878
90	0xbfa3f433	-1.2808899
91	0xbfff85ad	-1.996267
92	0xbfc56d76	-1.542403
93	0xbf04123d	-0.5159033
94	0xbd8113c1	-0.06302596
95	0xbfa30a71	-1.2737561
96	0x3f714a48	0.9425397
97	0xbfd6984d	-1.6765229
98	0xbf008e9f	-0.5021762
99	0xbe91c853	-0.28473148
100	0xbfb8275d	-1.4387013
101	0xbf69ef0b	-0.91380376
102	0xbd1dbb2f	-0.03850859
103	0xbe90c96c	-0.28278673
104	0xbfd40a87	-1.6565713
105	0xbfe7b0a4	-1.8100781
106	0xbf16463d	-0.58700925
107	0xbf13b860	-0.5770321
108	0xbf7055f5	-0.9388116
109	0xbf28c133	-0.659198
110	0xc0119a2a	-2.2750344
111	0x400c9d40	2.1970978
112	0x3eb8eb8a	0.36117202
113	0xbe41c393	-0.18922262
114	0xbec18dba	-0.3780344
115	0xbf646e72	-0.89231026
116	0xc0105a5e	-2.2555156
117	0xbfbedac4	-1.4910512
118	0xbf74ff5b	-0.9570214
119	0xbf956096	-1.1670101
120	0xbf62db8d	-0.8861626
121	0xbfe896af	-1.8170985
122	0xbfdfc162	-1.7480891
123	0xbfbf820e	-1.4961565
124	0xbf622da9	-0.8835092
125	0xbf7fb978	-0.9989238
126	0xc0069931	-2.1031
127	0xbf843861	-1.0329705
128	0xbfacea01	-1.3508912
129	0xbfb89c2a	-1.4422657
130	0x3d3c33df	0.045947906
131	0xbe42d262	-0.19025567
132	0xbeefa5fc	-0.46806324
133	0xbf6ca89b	-0.9244477
134	0xc025ccd3	-2.5906265
135	0xbfafdd7e	-1.3739469
136	0xbfa0e23b	-1.256904
137	0xbfd584a5	-1.6681105
138	0xbfb341d3	-1.4004463
139	0xc069326a	-3.643702
140	0xbf689871	-0.9085761
141	0xc013346c	-2.3000746
142	0xbec82048	-0.3908713
143	0xbfab7538	-1.3395147
144	0xc011f4bd	-2.2805626
145	0xbfd6340d	-1.6734635
146	0xbf9cf9fe	-1.2263792
147	0xbf25b729	-0.64732605
148	0xbf9926db	-1.1964983
149	0xbf28a0ad	-0.6587017
150	0xbfa585d9	-1.2931472
151	0xbfdc19e4	-1.7195401
152	0xbe9dc709	-0.30815914
153	0xbfc24373	-1.5176834
154	0xbf074727	-0.52842945
155	0xbfda0075	-1.703139
156	0xbfcb0bec	-1.5863013
157	0x3d8112a4	0.063023835
158	0xbf82145e	-1.0162466
159	0xbf3e4dfb	-0.7433774
160	0xbfbcd140	-1.4751358
161	0xc01bdf94	-2.4355211
162	0xbebf4a7a	-0.3736151
163	0xbf94a91a	-1.1614106
164	0xbf512033	-0.8168976
165	0xbfe08668	-1.7541018
166	0xbf0e6cfe	-0.5563506
167	0xbf870805	-1.0549322
168	0xbfb52ded	-1.415464
169	0xbf8fc414	-1.1231713
170	0xbf9c2de4	-1.2201505
171	0xbf3649f6	-0.71206605
172	0xbfff07d3	-1.9924263
173	0xbfe942d5	-1.822352
174	0x3d2f9b56	0.04287275
175	0xbfa2bf9a	-1.2714722
176	0x3ed634ba	0.41837102
177	0xbf828773	-1.0197586
178	0xbed8f82a	-0.42376834
179	0xbf268ba8	-0.6505685
180	0xbf53cc15	-0.8273328
181	0xbf6d15e1	-0.9261151
182	0xbede7aa9	-0.43452957
183	0xc0028ff7	-2.040037
184	0xbf92c772	-1.1467116
185	0xbfb7b8e5	-1.43533
186	0xbfdd7c88	-1.7303629
187	0xbfd3e902	-1.6555483
188	0xbf989d34	-1.1922975
189	0xbf87e229	-1.0615894
190	0xbf86bfe0	-1.0527306
191	0xbfb86ee0	-1.4408836
192	0xbf981697	-1.1881894
193	0xbf875334	-1.0572267
194	0xbfc0829c	-1.5039859
195	0xbf7c1716	-0.98472726
196	0xbfa59f14	-1.2939172
197	0xbff096de	-1.8796041
198	0xbfa0b0e3	-1.2553982
199	0xbefebeb3	-0.49754867
200	0xbfab0a6b	-1.3362554
201	0xbf1da045	-0.61572677
202	0xbfb04306	-1.3770454
203	0xbfa461f2	-1.284239
204	0xbfa499a7	-1.2859391
205	0xbf083fd1	-0.53222376
206	0xbf45ffb3	-0.7734329
207	0xbf0e4a5d	-0.5558222
208	0xbe171ba2	-0.14756635
209	0xc00a6715	-2.1625416
210	0xbfc031c5	-1.5015188
211	0xbed015d9	-0.40641668
212	0xc003b55c	-2.0579443
213	0xbe46eabe	-0.19425485
214	0xc0187e70	-2.3827171
215	0xbf73eea5	-0.9528602
216	0xbfb5f292	-1.4214652
217	0xbfb89914	-1.4421716
218	0xbf999277	-1.1997823
219	0xbf52ae18	-0.82296896
220	0xbef37d4e	-0.47556537
221	0xbfa1c39e	-1.2637823
222	0xbe90d14b	-0.28284678
223	0xbff7703f	-1.933113
224	0xbfcf9329	-1.6216785
225	0xbf3ffc9c	-0.74994826
226	0x3ed7246f	0.42019984
227	0xbfa585da	-1.2931473
228	0xbf6f1fa2	-0.9340764
229	0x3e8f34cf	0.27969977
230	0x3e8e2802	0.277649
231	0xbf0b720d	-0.544709
232	0xbfa346c8	-1.2755976
233	0xbe202fda	-0.15643254
234	0xbfa562bd	-1.2920758
235	0xbfadaea7	-1.3568925
236	0xbf78bb8d	-0.9716118
237	0xbf968631	-1.1759702
238	0xbfa3fd6c	-1.2811713
239	0xbf6d5672	-0.9271003
240	0xbeda7d54	-0.42673743
241	0xbff93463	-1.9469112
242	0xbff0b90a	-1.880647
243	0xbfc29d8b	-1.5204328
244	0xbf99af51	-1.2006627
245	0xbeed6fc4	-0.46374333
246	0xbf7952d8	-0.97392035
247	0xbe2f3bb9	-0.17112626
248	0xbf651011	-0.8947764
249	0x3e48de80	0.19616127
250	0xbeb60df6	-0.35557526
251	0x3eaccb0e	0.33748668
252	0x3f967c9a	1.1756775
253	0xbf925cff	-1.143463
254	0xbe253900	-0.16135025
255	0xbf9df5c5	-1.2340628

fc2.weight f4 [256, 256]
0	0x3d98d2b9	0.07462067
1	0xbdb59f3d	-0.08868263
2	0x3bfe124f	0.0077536474
3	0xbd49e688	-0.049292117
4	0xbce30a05	-0.027714739
5	0xbd9f8d6e	-0.077906474
6	0x3d7180f8	0.058960885
7	0xbd8b1caa	-0.067925766
8	0x3d14898a	0.03626398
9	0xbd54e15a	-0.051972724
10	0x3d9bb84f	0.076035134
11	0xbbc08184	-0.0058748145
12	0xbcbd6cc7	-0.023123158
13	0xbde0045d	-0.10938332
14	0xbd186529	-0.03720585
15	0x3beee013	0.0072898953
16	0x3c906884	0.017627962
17	0x3c8c3522	0.01711518
18	0xbe2551f5	-0.16144545
19	0xbdeb0d9f	-0.114772074
20	0xbd7aa02b	-0.061187904
21	0xbd96a549	-0.073557444
22	0xbdd54e33	-0.10415306
23	0x3d6a9922	0.057274945
24	0xbda6a00b	-0.081359945
25	0xbdd32d9c	-0.10311434
26	0xbd90eed2	-0.07076801
27	0x3c798d83	0.015231493
28	0xbb2f9bc3	-0.0026795722
29	0x3cb4d81c	0.022075705
30	0xbdeb81ee	-0.114993915
31	0xbc5f7ff1	-0.013641343
32	0xbdb2b4e8	-0.087259114
33	0xbd655c07	-0.055995967
34	0xbcf96d9d	-0.030447775
35	0xbdb7c44b	-0.08972987
36	0xbd5bbf4f	-0.053649243
37	0xbdcc58bd	-0.09977863
38	0xbda12c74	-0.07869807
39	0xbdab92ab	-0.08377584
40	0xbc130a29	-0.00897459
41	0xbdaf1a39	-0.085499234
42	0x3c8f62f3	0.017503237
43	0xbd6fa8dd	-0.05851065
44	0xbafded65	-0.0019373117
45	0xbd22b9a1	-0.03972781
46	0xbd9f0194	-0.07763973
47	0xbdffa48e	-0.12482558
48	0xbd29edb6	-0.041486464
49	0x3d653490	0.05595833
50	0xbcc8829d	-0.024476344
51	0x3cb75cde	0.02238315
52	0xbd0a23fe	-0.03372573
53	0xbdaae1c3	-0.08343842
54	0xbd6fb70e	-0.058524184
55	0xbc98dd31	-0.01866016
56	0x3d39277f	0.045203682
57	0xbd902910	-0.07039082
58	0x3cc60a3e	0.024174806
59	0xbdac6ff3	-0.0841979
60	0xbb9aa929	-0.0047198725
61	0x3bc2a2e2	0.0059398273
62	0x3c9711cd	0.018441105
63	0xbd037479	-0.0320935
64	0xbd038115	-0.032105524
65	0x3d041cf8	0.03225419
66	0xbcd78056	-0.026306313
67	0x3d5d75d5	0.05406745
68	0xbcd6cfc0	-0.02622211
69	0x3d2aa51c	0.041661367
70	0xbd478313	-0.048708986
71	0x3c9d4bfc	0.019201271
72	0x3e02d5cc	0.1277687
73	0xbd5179a4	-0.051141396
74	0x3d315a21	0.043298844
75	0xbdcfc069	-0.10144121
76	0xbde969fd	-0.11397169
77	0xbdebe264	-0.1151779
78	0xbb454026	-0.003009805
79	0xbdbad209	-0.09122092
80	0xbdb805fd	-0.08985517
81	0xbd80b7f4	-0.06285086
82	0x3d108d9d	0.035291303
83	0x3c2c5f00	0.010520697
84	0xbdc346be	-0.095349774
85	0xbdedf7f7	-0.11619561
86	0xbd5cf4f2	-0.053944536
87	0xbe0bf309	-0.1366693
88	0xbdacabbc	-0.08431193
89	0x3a8e2674	0.00108452
90	0xbdfb0933	-0.12257614
91	0x3c8c1677	0.017100556
92	0xbcbe6b05	-0.02324439
93	0xbdda937c	-0.10672662
94	0xbcd9df65	-0.02659578
95	0xbd3b077c	-0.045661435
96	0xba851452	-0.0010153151
97	0x3d19431a	0.03741751
98	0xbdc578fc	-0.096422166
99	0xbd5f99ac	-0.054589912
100	0xbe2d04a1	-0.16896297
101	0x3d647520	0.05577576
102	0xbd6805f1	-0.05664629
103	0x3be6456e	0.0070273196
104	0xbdd7e054	-0.10540834
105	0xbe28e9c7	-0.16495429
106	0xbd1dbd75	-0.03851076
107	0xbe088601	-0.13332368
108	0xbd9c743c	-0.076393574
109	0xbcaf4ecc	-0.021399878
110	0xbd4aadec	-0.04948227
111	0xbd27ccf5	-0.040966947
112	0xbd9f3fd7	-0.07775848
113	0x3c59f293	0.013302463
114	0xbcb1e0cf	-0.021713642
115	0xbc7f2a86	-0.015574103
116	0xbc3cb180	-0.011516929
117	0xbd99f230	-0.07516897
118	0xbe056cbb	-0.13029759
119	0xbc07987e	-0.008276103
120	0x3d2eeb8a	0.042705096
121	0xbd01fee5	-0.031737227
122	0xbd60f59a	-0.054921724
123	0xbdced104	-0.1009846
124	0xbd1ab506	-0.037770294
125	0xbc68db0b	-0.01421238
126	0x3d135d86	0.035977863
127	0xbe0efa34	-0.13962632
128	0xbd5a0679	-0.05322883
129	0xbd9f47c4	-0.0777736
130	0xbcf87a62	-0.030331794
131	0x3bfa5bed	0.007640353
132	0xbdb17b75	-0.08666126
133	0xbe16c3aa	-0.14723077
134	0xbd86461c	-0.06556341
135	0xbd98133e	-0.07425545
136	0xbde433eb	-0.11142715
137	0xbd1d3ae1	-0.03838623
138	0xbde72aac	-0.11287436
139	0xbda4e398	-0.080512226
140	0xbd87771a	-0.06614514
141	0x3caaf351	0.020867975
142	0xbd15ff6f	-0.036620554
143	0x3db6fa5c	0.08934471
144	0xbe0ee472	-0.13954332
145	0xbbaf456d	-0.0053488524
146	0x3a3d2dae	0.00072165846
147	0xbdef8dab	-0.11696943
148	0xb80e53ad	-3.3933367e-05
149	0xbdb38eff	-0.08767509
150	0xbd1d670a	-0.038428344
151	0xbddf385e	-0.10899423
152	0xbd0b8544	-0.03406264
153	0xbcc306cb	-0.02380695
154	0x3d18cedd	0.037306655
155	0xbdd7ebd2	-0.10543026
156	0xbe378237	-0.17920767
157	0xbd3d72d3	-0.046252083
158	0xbd7751ba	-0.060380675
159	0xbde7686e	-0.11299215
160	0x3d94beda	0.072629645
161	0xbcae02cc	-0.021241568
162	0xbbebc008	-0.007194523
163	0xbdc853fd	-0.097816445
164	0xbd95d07a	-0.073151544
165	0xbd020d1e	-0.03175079
166	0xbd68e020	-0.056854367
167	0xbd3d0c50	-0.04615432
168	0xbc03944d	-0.008030963
169	0x3c416df4	0.011806
170	0xbe207023	-0.15667777
171	0xbde77016	-0.113006756
172	0xbb00f308	-0.0019676108
173	0x3cee8caf	0.029119818
174	0xbc80ccb2	-0.015722606
175	0x3d90e1d3	0.070743226
176	0xbe2774a3	-0.16353087
177	0xbdc21991	-0.09477533
178	0xbc80f5a1	-0.015742125
179	0xbce2abfa	-0.027669895
180	0xbdc01645	-0.093792476
181	0xbdb31c5f	-0.08745646
182	0x3c8babaf	0.017049639
183	0xbddabf96	-0.10681073
184	0x3bf4ddb7	0.0074727195
185	0xbcc1e49e	-0.023668583
186	0xbdc6b7d8	-0.09703034
187	0x3d533e24	0.051572934
188	0xbe244224	-0.16040856
189	0xbd390a46	-0.045175813
190	0x3c268b66	0.010165071
191	0xbdad7100	-0.08468819
192	0xbc10602e	-0.0088119935
193	0xbc533e87	-0.012893326
194	0x3b6a75e1	0.0035775828
195	0xbcc29ebe	-0.023757335
196	0xbd16eb43	-0.036845457
197	0xbd8eed22	-0.06978823
198	0xbd656946	-0.0560086
199	0xbd8c34f8	-0.068460405
200	0x3c0c9dd2	0.008582549
201	0x3be63812	0.007025727
202	0xb9f1e04f	-0.00046134225
203	0xbd29c1fc	-0.041444764
204	0xbc0613df	-0.008183449
205	0xbc5fb9bf	-0.013655125
206	0x3cf856d2	0.030314837
207	0x3d562d85	0.052289505
208	0x3d59d1ff	0.053178784
209	0x3dbdbfc5	0.09265093
210	0xbd872322	-0.06598498
211	0x3d16ae0f	0.03678709
212	0xbcfdcaa7	-0.030980421
213	0x3d1cadbb	0.03825162
214	0xbd307466	-0.043079756
215	0xbca1d386	-0.019754183
216	0x3a1b8f11	0.00059340993
217	0xbdc4bff9	-0.096069284
218	0xbd942e22	-0.07235362
219	0x3c985274	0.018594004
220	0x3c124f73	0.008930075
221	0xbd4bb47f	-0.04973268
222	0xbd487941	-0.04894376
223	0xbddc5247	-0.10757881
224	0xbc817155	-0.015801111
225	0xbd948acb	-0.07253035
226	0xbdcc91d3	-0.09988751
227	0xbd3a198d	-0.045434523
228	0xbe14a164	-0.1451469
229	0xbddb5c05	-0.10710911
230	0xbda979ae	-0.08275162
231	0xbda2120d	-0.07913599
232	0xbd6c6658	-0.05771479
233	0xbd941247	-0.072300486
234	0xbcbdb3b6	-0.023156982
235	0x3d992200	0.07477188
236	0xbcbfa466	-0.023393821
237	0xbd847221	-0.06467081
238	0xbd295cc7	-0.041348245
239	0xbc7db337	-0.015484623
240	0xbcb7f721	-0.022456707
241	0xbe100c76	-0.14067253
242	0xbdf50949	-0.11964662
243	0xbdc1645b	-0.094429694
244	0xbd58dcaa	-0.052944817
245	0xbde21418	-0.11038989
246	0xbd25e2bb	-0.04049943
247	0x3b8e506e	0.004343084
248	0xbdb610ba	-0.08889909
249	0xbc098fb4	-0.008396078
250	0xbdbc97e4	-0.09208658
251	0xbdf4462c	-0.11927447
252	0x3c4da89c	0.012552407
253	0xbcc52312	-0.024064574
254	0xbd9db124	-0.076998025
255	0xbcbac960	-0.022801101

fc2.bias f4 [256]
0	0xbd0f8e3f	-0.035047766
1	0xc006863a	-2.1019425
2	0xbf88e031	-1.0693418
3	0xbeeedce9	-0.46652916
4	0x3fcd8bb0	1.6058254
5	0xbdacb3ee	-0.08432756
6	0x3f3e37c4	0.7430384
7	0x3e2f9249	0.17145647
8	0xbd0f9494	-0.035053805
9	0xbf896e09	-1.0736705
10	0x3f849815	1.0358912
11	0xbf6844cb	-0.9072997
12	0xbf7772b9	-0.9665943
13	0x3ec4e78c	0.38457906
14	0xbe1a7a91	-0.15085818
15	0xbcce0016	-0.025146525
16	0xbce7bcda	-0.028288294
17	0xbdbcc6dc	-0.09217617
18	0xbfa1132c	-1.2583976
19	0xbe86d455	-0.2633387
20	0xbfb6656c	-1.4249701
21	0xbe881453	-0.26578006
22	0xbf2901da	-0.6601845
23	0xbe7ddebc	-0.24791998
24	0x3f0fa0fc	0.5610502
25	0x3fb7a439	1.4346992
26	0x3ed014d8	0.40640903
27	0x3ea6717f	0.32508466
28	0xbeea1492	-0.4571882
29	0xbd1c785b	-0.038200717
30	0xbf045586	-0.51693
31	0x3f6a2de2	0.9147626
32	0x3f0eecee	0.55830276
33	0x3f9f7d76	1.2460163
34	0xbec0294b	-0.37531504
35	0xbeb88589	-0.3603938
36	0xbf90908d	-1.1294113
37	0xbf5c8d28	-0.8615289
38	0xbf50f31d	-0.8162096
39	0x3e7f8024	0.24951226
40	0x3f90ec03	1.1322025
41	0xbd2654cd	-0.040608216
42	0x3f873198	1.056201
43	0xbee77351	-0.45205167
44	0xbfb902d7	-1.4453992
45	0xbdde7a92	-0.10863222
46	0xbe214cec	-0.15752
47	0xbea5a16f	-0.32349727
48	0xbf5d79fc	-0.8651426
49	0xbf21d9dc	-0.6322305
50	0xbf7be4df	-0.98396105
51	0xbf0c5723	-0.5482046
52	0x3f6d9693	0.92807883
53	0xbfd4eb68	-1.663434
54	0x3f45b936	0.77235734
55	0xbdc1aa65	-0.09456328
56	0xbd4f7130	-0.050645053
57	0xbeb5a825	-0.35479847
58	0xbd9fce80	-0.078030586
59	0xbf2e2c0f	-0.6803598
60	0xbf954e39	-1.1664497
61	0xbe462b57	-0.1935247
62	0xbea5f68a	-0.32414657
63	0xbf5b2ef2	-0.8561851
64	0x3f0cf90e	0.5506753
65	0x3e81c8ae	0.2534842
66	0x3d0a0472	0.033695646
67	0xbf8cf01f	-1.1010779
68	0xbf851c4c	-1.039926
69	0x3fcb164f	1.5866183
70	0xbf0a478e	-0.54015434
71	0x3f59dfa9	0.85106903
72	0x3fd1443c	1.6348948
73	0x3d1605f4	0.03662677
74	0xbdd52aae	-0.10408531
75	0xbf897a66	-1.0740478
76	0x3fa702b5	1.3047701
77	0x3e7fcf12	0.24981335
78	0xbf35746b	-0.70880765
79	0x3c15570e	0.009114994
80	0x3f78cd5f	0.9718837
81	0xbd7113a4	-0.05885662
82	0x3f8a95f7	1.0827016
83	0x3f1852e2	0.5950147
84	0xbf3575ab	-0.7088267
85	0xbf0597bb	-0.5218465
86	0x3fc66bde	1.5501668
87	0xbf2a1571	-0.66438967
88	0x3fbfd329	1.4986316
89	0xbf8b14c1	-1.0865709
90	0x3aae25b2	0.001328638
91	0xbf2b779d	-0.6697939
92	0xbf298083	-0.6621172
93	0x3f4e10fa	0.80494654
94	0x3c1efff0	0.009704575
95	0x3e365b72	0.17808321
96	0x3f516546	0.81795156
97	0x3eeb912b	0.46009192
98	0xbf5d85ec	-0.86532474
99	0xbc616d58	-0.01375898
100	0xbfdc9093	-1.723162
101	0xbb3d1290	-0.0028850175
102	0xbf5866e4	-0.84532
103	0xbf039210	-0.5139475
104	0x3f8b7739	1.0895759
105	0xbc31e2f0	-0.010857329
106	0xbf0a66d9	-0.54063183
107	0xbeb196dc	-0.3468541
108	0xc020cfa9	-2.5126746
109	0xbecebaef	-0.40376994
110	0xbde3b5ea	-0.11118682
111	0x3f4d2013	0.80127066
112	0xbd160b6b	-0.036631983
113	0xbf544ef5	-0.8293298
114	0xbf2b8a42	-0.6700784
115	0x3e87ee2c	0.26548898
116	0xbe6074a2	-0.21919492
117	0xbdc4fb7d	-0.0961828
118	0xbda69f6e	-0.081358775
119	0xbe302b79	-0.17204084
120	0x3ff59ce7	1.9188508
121	0xbe058b94	-0.13041526
122	0x3ed6279b	0.41827092
123	0x3f382ede	0.71946514
124	0xbfac197c	-1.3445277
125	0x3f304b60	0.68865013
126	0x3f166fc6	0.587643
127	0xbd87fae1	-0.06639648
128	0xbe105764	-0.14095837
129	0x3e8fd26e	0.28090233
130	0xbf4324c6	-0.76227987
131	0xbf0cc93f	-0.5499458
132	0xbf3a007b	-0.72656983
133	0xbe8e8a72	-0.2784
134	0xbca5a3cd	-0.020219708
135	0x4008c83b	2.137221
136	0x3db3a9a5	0.087725915
137	0xbdd60bce	-0.1045147
138	0xbe0efb2a	-0.13962999
139	0xbd914822	-0.07093836
140	0x3f47661c	0.7789018
141	0x3ec48b51	0.3838754
142	0xbfc566f9	-1.542205
143	0xbf7204d3	-0.9453861
144	0xbec6cf8a	-0.38830215
145	0x3f02fa45	0.5116313
146	0xbf99cad2	-1.2015021
147	0x3d6f4341	0.058413748
148	0xbf023e28	-0.5087609
149	0x3e85eeaa	0.2615865
150	0x3dcec869	0.10096819
151	0xbd844554	-0.06458536
152	0xbe5a3c8a	-0.21312156
153	0x3e3ff4d1	0.18745734
154	0xbec4ed6c	-0.3846239
155	0x3de63fd4	0.11242643
156	0x3f10bc6b	0.56537503
157	0x3f084cd4	0.5324223
158	0xbd8628ed	-0.06550775
159	0xbe3cdb96	-0.1844314
160	0x3f73c804	0.95227075
161	0xbd74320d	-0.059618045
162	0xbdbc488d	-0.091935255
163	0xc036ecda	-2.8582063
164	0xbf129f4a	-0.57274306
165	0x3f4ec590	0.80770206
166	0x3f2d2a6e	0.6764287
167	0xbd70cfed	-0.058792043
168	0xbf0c68bd	-0.5484732
169	0xbf60e0ae	-0.87842834
170	0xbf642149	-0.8911329
171	0x3ecbe8cd	0.3982605
172	0xbf116ca7	-0.56806415
173	0xbf2ae98d	-0.6676262
174	0xbca5e283	-0.02024961
175	0x3fb00adc	1.3753314
176	0x3f2286ec	0.63487124
177	0xbfd2e938	-1.6477423
178	0xbdafc8af	-0.08583199
179	0xbdedbacc	-0.11607894
180	0xc0150fc0	-2.3290863
181	0xc08b44a2	-4.352128
182	0xbeca31d2	-0.39491135
183	0x3d923c6c	0.07140431
184	0xbdb97b21	-0.09056688
185	0xbec3ac30	-0.38217306
186	0xbfd1cdd7	-1.6390942
187	0x3d9eabd4	0.07747617
188	0xbc400ed4	-0.011722285
189	0xbdcbc5f2	-0.099498644
190	0xbd8f4e98	-0.069974124
191	0x3eeee244	0.46657002
192	0x3f4d07fb	0.800903
193	0xbfa2d64a	-1.2721646
194	0xbfccb2da	-1.5992081
195	0x3f07be12	0.530244
196	0x3e6da770	0.23208404
197	0x3f2c70f1	0.67359835
198	0x3e934bdc	0.28768814
199	0xbf3c9000	-0.73657227
200	0xbee86a2d	-0.45393506
201	0xbdafcbc2	-0.085837856
202	0xbda88594	-0.08228603
203	0x3f57af59	0.84251934
204	0xbf6d5531	-0.92708117
205	0xc03418a1	-2.8140032
206	0x3ef92f0d	0.4866871
207	0xbda276b0	-0.07932794
208	0xbdd45019	-0.1036684
209	0x3bf80558	0.0075689964
210	0xbf352b68	-0.7076936
211	0x3f280b63	0.65642375
212	0xbf0d4f93	-0.55199546
213	0x3f82e6ac	1.0226645
214	0xbf855120	-1.0415382
215	0xbf2437ba	-0.6414753
216	0xbe7fc16e	-0.24976131
217	0xbfc24136	-1.5176151
218	0xbec5d4cb	-0.3863891
219	0xbf5ed798	-0.8704772
220	0xbef4ce35	-0.47813573
221	0x3e8b4bdf	0.27206323
222	0x3f957e0f	1.1679095
223	0xbd8bc750	-0.06825125
224	0xbd21aaa3	-0.039469372
225	0xbee300c4	-0.44336522
226	0xbf274f70	-0.65355587
227	0xbfe6e10d	-1.803743
228	0x3e9d6f18	0.3074882
229	0xbfa1b24d	-1.2632538
230	0x400ba043	2.1816566
231	0xbd984c60	-0.074364424
232	0xbeb61bf9	-0.35568216
233	0xbf4682ce	-0.7754334
234	0x3f922dcb	1.1420225
235	0xbf3e27ec	-0.74279666
236	0xbd85ec77	-0.06539243
237	0xbe49cc8a	-0.19706932
238	0xbfebcdb2	-1.8422148
239	0x3f584ed3	0.84495276
240	0xbface682	-1.3507845
241	0x3fbcfad0	1.4764042
242	0x3f5e5fee	0.8686513
243	0x3fa01c17	1.2508572
244	0xbe81e828	-0.25372434
245	0x3ef8cbd0	0.48592997
246	0xbf88afd8	-1.0678663
247	0xbfd8e58c	-1.6945052
248	0xbe6e2171	-0.23254944
249	0x3e07612b	0.1322066
250	0xbcf193eb	-0.029489478
251	0x3fd273af	1.6441554
252	0xbc8e5550	-0.017374665
253	0xbf34e6bd	-0.7066458
254	0xbef1fffc	-0.47265613
255	0x3ef219a1	0.47285178

fc3.weight f4 [256, 256]
0	0xbc351b25	-0.011053835
1	0xbd3cb079	-0.046066735
2	0x3e25f6b1	0.16207387
3	0x3ea8e49d	0.32986918
4	0xbebb0d3f	-0.36533543
5	0x3e964c0f	0.29354903
6	0x3c9cc4d7	0.01913683
7	0x3e95aa16	0.29231328
8	0x3ca1c61c	0.019747786
9	0xbd6fc165	-0.058534045
10	0x3dfd6f46	0.12374739
11	0xbe34d7cf	-0.1766045
12	0xbef81aa2	-0.4845782
13	0x3d84718a	0.06466968
14	0x3e0a5ebe	0.13512704
15	0xbec5a166	-0.385997
16	0xbd73ae53	-0.05949242
17	0xbd4840e2	-0.048890002
18	0x3d67fc41	0.056637052
19	0x3d6380b8	0.055542678
20	0xbfa38b7e	-1.2776945
21	0x3ea795e8	0.32731557
22	0xbed26adc	-0.41097152
23	0xbed88672	-0.42290074
24	0xbeced895	-0.40399614
25	0xbdbb221f	-0.091373675
26	0xbe8a7783	-0.27044305
27	0x3f2be766	0.6714996
28	0x3d939968	0.07206994
29	0xbc534d56	-0.012896856
30	0xbf4c3604	-0.7976992
31	0x3efa758a	0.489178
32	0x3ef9cf81	0.48791125
33	0xbe628f3f	-0.22124957
34	0xbde5be2a	-0.112179115
35	0xbcb2645c	-0.02177637
36	0x3d9293aa	0.07157071
37	0x3eff0cd0	0.49814463
38	0xbefd8b79	-0.49520472
39	0x3e1f5ea4	0.15563446
40	0x3e4a2779	0.1974162
41	0xbde3df75	-0.111266054
42	0xbdb4c4c1	-0.0882659
43	0xbecba8b4	-0.39777148
44	0xbf22940e	-0.63507164
45	0x3a8087ae	0.0009806061
46	0xbcc52571	-0.024065705
47	0xbebe7add	-0.37203112
48	0xbd88f615	-0.066875614
49	0x3da3f99c	0.080065936
50	0xbd2f801f	-0.042846795
51	0xbf54eb28	-0.8317132
52	0x3f286b9c	0.657892
53	0xbd55c762	-0.0521921
54	0x3e6616f0	0.22469687
55	0x3e161aeb	0.14658706
56	0xbed031d2	-0.4066301
57	0x3e5762b8	0.21033752
58	0xbed23701	-0.4105759
59	0xbe4e9b05	-0.20176323
60	0xbe0c2f0e	-0.13689825
61	0xbe6314e1	-0.22175933
62	0x3e9fefc5	0.31237617
63	0xbf360683	-0.71103686
64	0x3ed84a64	0.42244256
65	0x3d826ab9	0.06368012
66	0xbe20a9bc	-0.15689749
67	0x3e4fe4d1	0.2030213
68	0x3e56fcae	0.20994827
69	0x3e12c199	0.14331664
70	0xbd60dc5d	-0.054897655
71	0x3d5da340	0.054110765
72	0xbdab6d49	-0.08370454
73	0x3c8b3db1	0.01699719
74	0x3cff5c17	0.031171842
75	0xbef089be	-0.4698009
76	0xbe5b9f4e	-0.21447489
77	0x3e678cc2	0.22612289
78	0xbe3163d3	-0.17323236
79	0xbd55bd7a	-0.052182652
80	0xbd23bfca	-0.039977826
81	0xbcea5fcb	-0.02861013
82	0x3ee36e3d	0.44420043
83	0xbe77dba0	-0.24204874
84	0x3e11b260	0.14228201
85	0xbe2a12fa	-0.16608801
86	0xbef11ec5	-0.47093788
87	0x3d424e45	0.047437925
88	0x3edf6758	0.43633533
89	0xbf184e48	-0.5949445
90	0x3e14189e	0.14462516
91	0x3e19bd4a	0.15013614
92	0xbd4f7633	-0.050649833
93	0x3ea28829	0.31744507
94	0xbf199122	-0.5998708
95	0xbec81b39	-0.3908327
96	0xbf3ce400	-0.737854
97	0x3dc31264	0.09524992
98	0xbedf6f2b	-0.43639502
99	0x3c004666	0.007829284
100	0x3e20f998	0.15720212
101	0x3b9bbab1	0.00475248
102	0x3e9c23b4	0.3049599
103	0xbe93a705	-0.28838363
104	0xbedcb964	-0.43110192
105	0x3d46c439	0.048526976
106	0xbd8947ad	-0.06703124
107	0xbc46fc72	-0.012145149
108	0xbe8f1f4e	-0.2795357
109	0xbedbaf8c	-0.4290737
110	0xbfb4accc	-1.4115233
111	0x3eae810b	0.34082827
112	0xbe3cfd7d	-0.18456073
113	0xbdfc73ba	-0.123267606
114	0xbf5fd1ff	-0.87429804
115	0xbce81e07	-0.02833463
116	0x3d80ad5c	0.06283066
117	0xbdd52eda	-0.10409327
118	0xbd22cac4	-0.039744154
119	0xbe40c3d6	-0.18824705
120	0x3ed43233	0.4144455
121	0xbea100cd	-0.31445923
122	0x3b4344e7	0.0029795708
123	0xbf1aac03	-0.6041872
124	0x3d91ae80	0.07113361
125	0xbe9db737	-0.30803844
126	0x3d64ef6a	0.055892386
127	0xbd3397f4	-0.043846086
128	0xbe233d67	-0.15941392
129	0xbc320511	-0.010865466
130	0x3e8ca7db	0.27471814
131	0x3e737e2d	0.23778601
132	0x3ebfe3c5	0.37478462
133	0xbe35b0a6	-0.17743167
134	0x3c4bf355	0.012448152
135	0x3e667630	0.22506022
136	0xbe695a4e	-0.22788355
137	0x3dcf2d3c	0.1011605
138	0xbe7a008a	-0.24414268
139	0x3d0ba228	0.03409019
140	0x3e56bb6e	0.20969936
141	0x3d43e5e0	0.047826648
142	0xbe4a3cc8	-0.19749749
143	0xbed34fac	-0.41271722
144	0xbe35e7f8	-0.1776427
145	0xbe04ceda	-0.12969533
146	0xbfc4855f	-1.5353202
147	0xbebbc23d	-0.3667163
148	0xbdd1a577	-0.10236638
149	0x3deef6d9	0.11668176
150	0x3c0587be	0.008150039
151	0x3c98b526	0.018641066
152	0xbe503bc7	-0.20335303
153	0xbd0c3780	-0.034232616
154	0x3e8869e9	0.26643303
155	0x3dbd30ba	0.092378095
156	0x3e75a263	0.23987727
157	0xbf2013a4	-0.6252997
158	0xbb9c994e	-0.0047790175
159	0xbd9e2236	-0.07721369
160	0xbeeec974	-0.46638072
161	0xbcf5ed0b	-0.030020257
162	0xbd94f5c3	-0.07273438
163	0xbf77cb41	-0.96794516
164	0xc015c0eb	-2.3398998
165	0xbf98276c	-1.1887031
166	0xbe0a7a21	-0.13523151
167	0xbb1aab57	-0.0023600662
168	0x3b093203	0.002093435
169	0xbeda8513	-0.42679653
170	0x3e18e7d4	0.14932185
171	0x3ddfd60c	0.10929498
172	0xbf29083d	-0.66028196
173	0x3d3f0872	0.046638913
174	0xbe3803f1	-0.17970254
175	0x3e3f9a69	0.18711247
176	0xbeb9a185	-0.36256042
177	0xbe157461	-0.14595176
178	0xbceb6120	-0.028732836
179	0xbb8d6f9a	-0.0043162825
180	0x3e8aea20	0.27131748
181	0xbe14dfc5	-0.14538486
182	0xbdb56c04	-0.08858493
183	0xbc3d0781	-0.011537434
184	0x3da940d3	0.08264317
185	0xbf5abfd0	-0.8544893
186	0x3e833bf5	0.2563168
187	0xbb87db9b	-0.004146052
188	0x3d7d71c3	0.06187607
189	0x3d291e14	0.04128845
190	0xbd4423be	-0.04788565
191	0xbe81ab13	-0.25325832
192	0x3f0f9b4a	0.5609633
193	0xbe49f757	-0.19723259
194	0xbe1a58fb	-0.15073006
195	0x3dc807da	0.097671226
196	0xbdcd5e40	-0.100277424
197	0x3e9cba2a	0.30610782
198	0x3ee7db8e	0.45284694
199	0xbe8e3a5f	-0.2777891
200	0xbf0d23af	-0.55132574
201	0xbe031afd	-0.12803264
202	0x3d28a64b	0.041174214
203	0xbedc1886	-0.4298746
204	0xbf544683	-0.8292009
205	0xbe98c81f	-0.2984018
206	0x3e555318	0.20832479
207	0xbf11d9aa	-0.56972754
208	0x3d064c9b	0.0327879
209	0xbe7d7607	-0.24752055
210	0x3e8a0e67	0.26964113
211	0x3d8b07f1	0.06788624
212	0x3d474fab	0.04865996
213	0x3ccd3e76	0.025054198
214	0xbfa73461	-1.306286
215	0x3e6a6e25	0.2289358
216	0x3e0a1973	0.1348627
217	0xbe83636d	-0.25661793
218	0xbdb8a399	-0.09015579
219	0xbe77eb93	-0.24210958
220	0xbe76a1a9	-0.24085106
221	0x3e96a960	0.29426098
222	0xbf4355ba	-0.76302683
223	0xbf1438bd	-0.57899076
224	0xbd3ad0ef	-0.04560941
225	0x3e0e9eb1	0.13927723
226	0x3e9fb612	0.31193596
227	0xbe870689	-0.26372173
228	0xbdb4859c	-0.088145465
229	0xbdf2ce8f	-0.11855804
230	0x3e1406da	0.14455739
231	0x3e1aba81	0.15110208
232	0xbf4e10e2	-0.8049451
233	0xbea19d31	-0.3156524
234	0x3ed05fbe	0.40698045
235	0x3e56aded	0.20964785
236	0x3ebbd209	0.36683682
237	0x3e841a44	0.2580129
238	0xbe193268	-0.14960635
239	0xbea33ca4	-0.31882203
240	0xbf8a1bde	-1.0789754
241	0xbee55873	-0.44794044
242	0x3e94bbb5	0.2904946
243	0xbc207eb3	-0.009795832
244	0x3ee835e5	0.45353618
245	0x3eb5ec00	0.35531616
246	0xbe78f511	-0.24312235
247	0x3e8f3daa	0.27976733
248	0x3d8a67b4	0.06758061
249	0xbda03ce2	-0.078241125
250	0x3acd12ce	0.0015645863
251	0xbf11364b	-0.5672347
252	0x3eebc808	0.4605105
253	0xbead6c4c	-0.33871686
254	0x3d9ee0e7	0.077577405
255	0xbdb8a362	-0.09015538

fc3.bias f4 [256]
0	0x3ebe78dd	0.37201586
1	0x3f04b186	0.5183338
2	0xbf11b203	-0.5691225
3	0xbe2405d1	-0.16017844
4	0xbf203943	-0.62587374
5	0xbf915d5c	-1.1356616
6	0xbfa25f28	-1.2685289
7	0xbf855919	-1.0417815
8	0xbfd6aa2b	-1.6770681
9	0xc02aa69b	-2.6664188
10	0xbe9371fa	-0.28797895
11	0xbf479755	-0.7796529
12	0xbf2ddcf5	-0.6791528
13	0xbf1d370a	-0.6141211
14	0x3e74a55b	0.23891203
15	0x3fcc9393	1.5982536
16	0xbf0d9f2d	-0.5532101
17	0xbeea92d5	-0.4581515
18	0x3f581d48	0.8441968
19	0xbfdf5225	-1.7446944
20	0xbf51101b	-0.816652
21	0xbfda4198	-1.7051268
22	0xbf66a3f7	-0.9009394
23	0x3ddba195	0.10724179
24	0xbee00d61	-0.43760207
25	0xbe79e815	-0.24404939
26	0xbf78566f	-0.9700689
27	0x3eb8e350	0.36110926
28	0x3ef544b2	0.47903973
29	0x3d2928df	0.041298743
30	0xbfdd4991	-1.7288076
31	0xbfa50620	-1.2892494
32	0xbf9f5e94	-1.2450738
33	0xbe51299d	-0.2042603
34	0xbf8c1c27	-1.0946091
35	0xbf4410d1	-0.7658816
36	0xbee6f36d	-0.45107594
37	0x3e0be514	0.13661605
38	0xbf8b9761	-1.0905572
39	0x3fe1890c	1.7619948
40	0xbdfa56ae	-0.12223564
41	0xbef9de5f	-0.48802468
42	0xbf468270	-0.7754278
43	0xbf664a8c	-0.899575
44	0xbe272a0d	-0.16324635
45	0xbfb873cf	-1.4410342
46	0xbef6a41b	-0.48172078
47	0xbf4a2757	-0.7896628
48	0x3dca407c	0.09875581
49	0xbe563e2d	-0.20922156
50	0xbf8d3f5c	-1.1034961
51	0xbf50b205	-0.81521636
52	0x3e29df4e	0.1658909
53	0xbee74afb	-0.45174393
54	0xbdbeb4c7	-0.09311824
55	0xbf4947db	-0.7862527
56	0xbf4a314c	-0.7898147
57	0xbf91ab7e	-1.138046
58	0xbf724688	-0.9463887
59	0xbd6b88e1	-0.057503585
60	0xbfcd5c35	-1.6043764
61	0xbe16946e	-0.14705059
62	0xbf719ab9	-0.94376713
63	0xbe0f058a	-0.13966957
64	0xbfceefea	-1.6166966
65	0x3f5746cf	0.8409242
66	0x3eab2c9b	0.3343247
67	0x3ee7002c	0.4511732
68	0xbfd8f35a	-1.6949265
69	0xbd1c1e8e	-0.038115077
70	0xbf85ceda	-1.0453751
71	0xbf8e7c0f	-1.113161
72	0x3f190e70	0.59787655
73	0xbf779909	-0.9671789
74	0x3df05069	0.11734087
75	0xbe83c283	-0.25734338
76	0x3e81deb3	0.2536522
77	0xbeab969f	-0.33513352
78	0xbed9e513	-0.42557582
79	0xbfce281b	-1.6105989
80	0x3d36a1ee	0.044588022
81	0xbf3b33fe	-0.7312621
82	0xbee2c16a	-0.44288188
83	0xbee7f382	-0.4530297
84	0xbf9e7b6e	-1.2381418
85	0xbf256936	-0.64613664
86	0xbf025382	-0.5090867
87	0xbe28090e	-0.16409704
88	0xbee39b1f	-0.44454286
89	0xc00034f4	-2.003232
90	0xbfafd23f	-1.3736037
91	0xbe6057af	-0.21908449
92	0xbf4894da	-0.7835213
93	0xbf8136ab	-1.0094808
94	0x3fa1fa45	1.2654501
95	0xbf01bcc9	-0.5067869
96	0xbed853ef	-0.42251536
97	0xbde29065	-0.11062697
98	0x3efe6e72	0.49693638
99	0xbf282ecc	-0.65696406
100	0x400c7178	2.1944256
101	0x3f2e9a90	0.68204594
102	0xbf09e6da	-0.53867877
103	0xbdce939e	-0.100867495
104	0x3e40dc2e	0.18833992
105	0xbf998f96	-1.1996944
106	0x3dde7173	0.108614825
107	0xbec7d77e	-0.39031595
108	0xbf360319	-0.71098477
109	0xbf881b71	-1.0633374
110	0xbf90bcd0	-1.1307621
111	0xbdd763da	-0.10517092
112	0xbfa58792	-1.2931998
113	0xbf9b1281	-1.2115022
114	0xbf4380c0	-0.7636833
115	0xbf92d7c1	-1.1472093
116	0xbf64fa62	-0.89444554
117	0xbf17e733	-0.59337157
118	0xbfa0d214	-1.2564111
119	0xbe83d32d	-0.25747052
120	0xbe40c1ec	-0.18823975
121	0xbf80ce47	-1.0062951
122	0x3f84919a	1.0356934
123	0x3eedac99	0.46420744
124	0x3f46ee74	0.777076
125	0xbf0b23a4	-0.5435126
126	0xbf19765f	-0.59946245
127	0xbe0ad79d	-0.13558812
128	0xbf8d3fca	-1.1035092
129	0xbe50eabf	-0.20402049
130	0x3e07eee4	0.13274723
131	0x3e2d5180	0.16925621
132	0x3dd4d79a	0.10392685
133	0x3eb9875b	0.3623608
134	0xbf25e568	-0.6480317
135	0xbee11d51	-0.4396768
136	0x3f027d68	0.50972605
137	0xbfa656f8	-1.2995291
138	0xbf42025d	-0.75784856
139	0x3ff3face	1.9060915
140	0xbf827199	-1.0190917
141	0xbfa1f1e9	-1.265195
142	0xbf663c35	-0.8993562
143	0x3f1397ad	0.57653314
144	0xbe370f65	-0.17876966
145	0xbf4b28e3	-0.79359263
146	0xbedd6006	-0.43237323
147	0x3f8ac342	1.0840838
148	0xbeb81716	-0.35955113
149	0xbf913fd1	-1.13476
150	0xbf75251e	-0.9575976
151	0xbf4591d0	-0.7717562
152	0xbf77957a	-0.9671246
153	0xbf4dc64b	-0.80380696
154	0x3f96d054	1.1782327
155	0x3e9ec325	0.31008258
156	0x3f12b83d	0.57312375
157	0xbf2fc08d	-0.68653184
158	0xbfc8bc82	-1.5682528
159	0x3e9fa925	0.31183735
160	0xbee826b7	-0.45342037
161	0xbf5736c7	-0.8406796
162	0xbf10d5a6	-0.56576
163	0xbdfe3cce	-0.12413941
164	0xbea02a5e	-0.31282324
165	0xbf15ed5c	-0.58565307
166	0xbef151c8	-0.47132707
167	0x3f002acf	0.5006532
168	0xbedc0b19	-0.42977217
169	0xbedb8412	-0.428742
170	0xbf407a89	-0.75186974
171	0xbf2b4d4d	-0.66914827
172	0x3f2645fe	0.6495055
173	0xc013c374	-2.3088045
174	0xbf534a3a	-0.82535136
175	0x3df6f26f	0.12057959
176	0xbfa67fdb	-1.3007768
177	0xbf8fdce3	-1.1239284
178	0xbf448f58	-0.76781225
179	0x3e2f965d	0.17147203
180	0xbf28d1cc	-0.65945125
181	0xbf20f160	-0.6286831
182	0xbdd02636	-0.10163538
183	0xbf9999e0	-1.2000084
184	0xbfceddce	-1.616144
185	0xbeb70540	-0.35746193
186	0xbfe21748	-1.7663355
187	0xbeb9d8e6	-0.36298293
188	0xbf393048	-0.72339296
189	0xbf480338	-0.7812991
190	0xbf02351a	-0.50862277
191	0xbf9b1d17	-1.2118253
192	0xbf396e73	-0.7243416
193	0x3eb17440	0.34659004
194	0xbfbe34bc	-1.4859843
195	0xbdb66328	-0.08905631
196	0xc02feaab	-2.748698
197	0xbf6db555	-0.92854816
198	0x3da3fce4	0.080072194
199	0xbfac47c9	-1.3459407
200	0xbf537282	-0.825966
201	0xbf82e11d	-1.0224949
202	0xbf925734	-1.1432862
203	0x3e8b85fc	0.2725066
204	0xbf026933	-0.5094177
205	0xbf6b3a63	-0.91885966
206	0xbf2db4d4	-0.67854047
207	0xbf6cd9b7	-0.92519706
208	0x3d8481d0	0.06470072
209	0xc00583db	-2.0861728
210	0xbf516cc1	-0.8180657
211	0xbf875624	-1.0573163
212	0xbf4f4d4b	-0.80977315
213	0xbf50dd95	-0.8158811
214	0xbf5e04a9	-0.8672586
215	0x3edeee96	0.43541402
216	0xbe6b09a3	-0.22952895
217	0xbf8c8ba2	-1.0980113
218	0x3e9db27a	0.3080023
219	0xbf387606	-0.7205509
220	0x3ed938f6	0.4242627
221	0x3ef115e5	0.47087017
222	0xbf807427	-1.0035447
223	0xbf2d481f	-0.67688173
224	0xbf841999	-1.0320312
225	0xbee6eeb7	-0.45104
226	0x3eba7f72	0.36425358
227	0xc0014973	-2.020108
228	0xbdb77ef3	-0.089597605
229	0x3d84c668	0.064831555
230	0xbf6d8853	-0.9278614
231	0xbe6131e4	-0.21991688
232	0xbeceece4	-0.40415108
233	0xbf295170	-0.6613989
234	0xbec36aef	-0.3816752
235	0xbe136a33	-0.1439598
236	0xbec17e50	-0.3779168
237	0xbf6ab614	-0.9168408
238	0xbf31819c	-0.69338393
239	0xbf7f0818	-0.99621725
240	0x3dc5a3fc	0.09650418
241	0xbfa40381	-1.2813569
242	0xbdfa2cbd	-0.122155644
243	0x3ce7ca45	0.028294692
244	0xbf914197	-1.1348141
245	0xbf0c0d6b	-0.54707974
246	0xbe2e7b03	-0.17039113
247	0xbf41d5bb	-0.7571675
248	0xbef4e4c7	-0.47830793
249	0x3f1cafe5	0.61205894
250	0xbfad7796	-1.355212
251	0x3f1facf4	0.6237328
252	0xbe104032	-0.14086989
253	0xbf2c7748	-0.6736951
254	0xbf2e6c92	-0.68134415
255	0x3f3101b5	0.6914323

action_out.weight f4 [4, 256]
0	0x3ca9ab0d	0.020711446
1	0xbcfb0090	-0.030639917
2	0x3d708347	0.058718946
3	0x3db70348	0.08936173
4	0x3eaf4d0f	0.3423848
5	0xbe2e30d2	-0.17010811
6	0x3fc1ec55	1.5150248
7	0x3c3b68af	0.011438533
8	0x3dda29a6	0.10652475
9	0xbc3c9969	-0.011511185
10	0xbe185c24	-0.14878899
11	0x3d99db2b	0.07512506
12	0x3dd26ffb	0.10275265
13	0x3fb9e477	1.4522847
14	0x3d995736	0.07487337
15	0x3dbf61a6	0.09344797
16	0xbde600b0	-0.112306
17	0x3e4caacc	0.19987029
18	0x3d3459e2	0.04403103
19	0xbcad8b15	-0.021184484
20	0x3f0939e7	0.53603977
21	0xbf1ac63a	-0.6045872
22	0xbb708068	-0.003669763
23	0xbd8d9af8	-0.069143236
24	0xbc1b6860	-0.009485334
25	0xbd38d824	-0.045128003
26	0x3d198285	0.03747799
27	0x3de9eb73	0.114218615
28	0x3c118595	0.008881946
29	0xbca5fbdf	-0.020261703
30	0xba788229	-0.00094798446
31	0x3ff11bc4	1.8836598
32	0x3f70b73a	0.9402958
33	0x40ae487e	5.446349
34	0xbc164f42	-0.00917417
35	0xbd9f98a2	-0.07792784
36	0x4028ae41	2.6356356
37	0xbb8d2102	-0.0043069134
38	0xbdc2a58b	-0.09504231
39	0x3dd59b91	0.104300626
40	0xbd15b6f4	-0.03655143
41	0x3dbc5345	0.0919557
42	0x3e4630f2	0.19354609
43	0x3cfc2307	0.030778421
44	0xbe237b57	-0.15965019
45	0xbc18d4df	-0.009328096
46	0xbe82aacb	-0.2552093
47	0x3d8261d5	0.06366316
48	0xbdfa0665	-0.12208251
49	0x3d603e34	0.05474682
50	0x3e832035	0.2561051
51	0x3d8b274a	0.06794603
52	0x3d5fbcd0	0.054623425
53	0xbbb3b844	-0.0054846127
54	0xbc3dcfe8	-0.011585213
55	0xbed5fb68	-0.4179337
56	0x3eebf6bb	0.46086678
57	0xbe216398	-0.15760648
58	0xbd1ad2ed	-0.03779881
59	0xbda6f35d	-0.081518866
60	0x3f0e3a7b	0.55557984
61	0xbda38fd1	-0.07986415
62	0xbcb0be79	-0.0215752
63	0x3a92ecd2	0.0011209494
64	0xbd2b9630	-0.041891277
65	0x3d0fb662	0.035086043
66	0x3ed65bbd	0.41866866
67	0x3a90bcfa	0.0011042648
68	0x3d3aa7a1	0.04557002
69	0xbe6105c1	-0.21974851
70	0x3c2ed3cc	0.0106706135
71	0x3c09fda4	0.008422289
72	0x3cd8387b	0.02639412
73	0xbf4a6881	-0.7906571
74	0xbda17b17	-0.07884806
75	0xbc693068	-0.014232732
76	0x3c8102fa	0.01574849
77	0xbe0f7251	-0.14008452
78	0xbb382344	-0.0028097192
79	0xbe304758	-0.17214715
80	0x3e049b62	0.12949899
81	0xbcf463ee	-0.029832806
82	0xbb8641a4	-0.0040971804
83	0xbce37ae2	-0.027768556
84	0x3e98bf1f	0.29833314
85	0x3bedaf56	0.0072535677
86	0x4120e6e3	10.056369
87	0x3c42dd0f	0.011893525
88	0xbdf44947	-0.11928039
89	0x3c6b0e94	0.014346737
90	0xbef8f0af	-0.48621127
91	0x3eb5ccd8	0.35507846
92	0x3e118237	0.1420983
93	0x3cea51f2	0.028603528
94	0x3d74323e	0.059618227
95	0xbd1d8592	-0.03845746
96	0xbd04f062	-0.03245581
97	0x3d0cbbb5	0.0343587
98	0x3c72664b	0.014794896
99	0x3d48840e	0.048954062
100	0x3e584352	0.2111943
101	0x3c5dc650	0.013536051
102	0xbc339e2f	-0.010963007
103	0x3fbee4ac	1.4913535
104	0xbcefd336	-0.029275518
105	0x3b082ce5	0.0020778712
106	0xbd0276c7	-0.031851556
107	0xbb9b2a16	-0.0047352416
108	0xbda2d60a	-0.07950981
109	0xbc2a6234	-0.01039939
110	0x3d8877c1	0.06663466
111	0xbd9f4f98	-0.07778853
112	0x3ca418a0	0.020031273
113	0x3f42d994	0.7611325
114	0x3c8604d1	0.016359719
115	0xbbc6494a	-0.006051217
116	0x3d06b3b7	0.032886233
117	0x3d4a2440	0.049350977
118	0x3db2ab7f	0.087241165
119	0xbcec1c49	-0.028822081
120	0xbcf94ba2	-0.030431572
121	0x3fbb2bbc	1.4622722
122	0x3c9c6341	0.019090297
123	0xbe9cdff6	-0.3063962
124	0x3e01bc46	0.12669477
125	0x3e2de840	0.16983128
126	0x3f1a0c6b	0.601752
127	0xbe333015	-0.1749881
128	0x3cc8e189	0.024521606
129	0x3d8ab8ff	0.067735665
130	0x3b853f6d	0.004066399
131	0xbdd46a08	-0.10371786
132	0x3c179b44	0.009253327
133	0xbdcd3a17	-0.100208454
134	0x3fa3441b	1.2755159
135	0x401646a1	2.3480608
136	0xbbcccbaa	-0.0062498646
137	0x3db0e6f2	0.08637799
138	0x3d88707d	0.066620804
139	0x3e0d090b	0.13772981
140	0xbcf2e27c	-0.029649012
141	0x3c3e939d	0.011631873
142	0x3f77744b	0.96661824
143	0x3f6e942f	0.9319486
144	0xbc9ee351	-0.019395502
145	0x3ffe66a2	1.9875071
146	0x3dee41de	0.11633657
147	0x3dc07af2	0.0939845
148	0xbeab23f9	-0.33425882
149	0xbd623e56	-0.05523523
150	0x3db58554	0.08863321
151	0x3b6137ba	0.003436549
152	0x3fc1132e	1.5083978
153	0x3d9edd41	0.077570446
154	0x3e5e01c7	0.21680366
155	0x3bd709a7	0.00656243
156	0xba747b48	-0.00093262317
157	0x4061aee8	3.5263004
158	0x3e454960	0.19266272
159	0xbd82f9bd	-0.0639529
160	0xbd1df950	-0.03856784
161	0xbd843c2d	-0.0645679
162	0xbd9e462c	-0.07728228
163	0xbbd88246	-0.0066073267
164	0xbc2b3afe	-0.010451077
165	0xbe0bf488	-0.136675
166	0x3d9e205a	0.07721014
167	0x3e1909ed	0.14945193
168	0x3e0bc791	0.13650347
169	0xbdba9bd1	-0.09111751
170	0x3ea58a85	0.32332245
171	0xbe7dd7c2	-0.24789336
172	0x3caa3136	0.020775419
173	0xbc8708d4	-0.016483702
174	0xbc0135ae	-0.007886333
175	0xbd8768c8	-0.06611782
176	0x3cf8e873	0.030384278
177	0xbd6d8f27	-0.05799785
178	0x3d61e37a	0.05514858
179	0xbd161a3b	-0.03664611
180	0x3d6775f8	0.05650899
181	0x3a84d1ed	0.0010133364
182	0x3efbe143	0.491953
183	0xbdfb7cab	-0.12279638
184	0x3d9f880d	0.077896215
185	0xbbbb565d	-0.0057170824
186	0x3e5d5e14	0.21617919
187	0xbdec9d85	-0.11553482
188	0x409abfba	4.835904
189	0xbd3b2149	-0.04568604
190	0xbdb6ad11	-0.089197285
191	0x3a8dae38	0.0010809368
192	0x3d9983cc	0.074958414
193	0xbe26223f	-0.16224001
194	0x3f71adcc	0.9440582
195	0xbda15960	-0.07878375
196	0x3bb2cb5a	0.0054563703
197	0xbd15835c	-0.036502227
198	0xbde4af29	-0.11166222
199	0x3efb2bcf	0.4905686
200	0xbe071af5	-0.13193877
201	0xbd4ec17f	-0.0504775
202	0x3c5a9566	0.013341283
203	0x3c3093c4	0.010777418
204	0xbe007b70	-0.12547088
205	0xbdd6df7e	-0.104918465
206	0x3e5af59a	0.21382752
207	0x3da0f9bf	0.07860135
208	0xbdf6a737	-0.120436125
209	0xbacef178	-0.0015788516
210	0xbd44de06	-0.0480633
211	0xbf883324	-1.0640607
212	0x3d9f3fae	0.07775818
213	0x3fbf6cac	1.4955039
214	0xbcd79e77	-0.02632068
215	0xba357480	-0.0006921962
216	0x3bdeb000	0.006795883
217	0x3e37d7bc	0.1795339
218	0x3bfc4c81	0.0076995497
219	0x3dd5a8ca	0.104325846
220	0x3eafe95e	0.34357733
221	0x3da4ed62	0.0805309
222	0x3c92fc31	0.01794252
223	0xbe8967c7	-0.26836988
224	0xbc181b0a	-0.00928379
225	0xbdb4b000	-0.08822632
226	0xbddd7977	-0.10814183
227	0x3ee3d950	0.44501734
228	0x3f3b353a	0.7312809
229	0x3e36cb4e	0.17850992
230	0x3cdb4340	0.026765466
231	0x3d1d92d2	0.038470097
232	0xbe8a667a	-0.27031308
233	0xbdc4b99f	-0.09605717
234	0x3b51d09f	0.0032015217
235	0xbd113be5	-0.03545751
236	0xbd36e25e	-0.044649474
237	0xbd1f2c6a	-0.038860716
238	0x3c277540	0.010220826
239	0x3cb7211d	0.022354657
240	0xbd173c7b	-0.036922913
241	0x3cbdd491	0.023172649
242	0xbd625f78	-0.055266827
243	0x3d25e03f	0.04049706
244	0x3fbcaa52	1.4739478
245	0xbd9543d6	-0.07288329
246	0x3f7465d2	0.95467865
247	0x3ee94b9a	0.45565492
248	0x3df5c0e2	0.1199968
249	0xbd43f906	-0.04784491
250	0x3f667ba7	0.9003243
251	0x3ca5494e	0.020176556
252	0x3ea5fbbf	0.3241863
253	0x3c4f6467	0.012658215
254	0x3edbe40a	0.42947417
255	0x3cbeae9c	0.02327662

action_out.bias f4 [4]
0	0x3d215a2c	0.039392635
1	0x3bdca8aa	0.0067339735
2	0x3c087b7b	0.008330221
3	0xbc18db09	-0.009329566
